CNN_model.pth (torch, 188244 bytes, 10 tensors)

weight f4 [8, 1, 5, 5]
-0.041593973 -0.03291876 -0.067827426 -0.14775784 -0.49492988 0.14674631 -0.19102983 0.040533945
-0.172709 -0.13449761 0.14848264 -0.002918913 -0.025869712 0.12338833 -0.23366402 0.018829145
0.095184654 -0.02907426 0.12803456 0.025837442 0.23941272 0.28882104 0.21564126 0.25787616
0.24656925 0.080629334 -0.045029107 0.3166084 0.1505761 -0.19628175 -0.21896918 0.027561978
0.33378056 0.10388969 -0.24813609 -0.44257715 0.0045785336 0.31998596 0.023310557 -0.128756
-0.23058018 0.08214473 0.0768136 -0.08647478 -0.2496721 -0.042780433 0.12288086 0.21440601
0.1479172 -0.09881646 -0.06434905 -0.09470392 -0.124016 -0.36601773 0.4025555 -0.104470104
-0.24545662 -0.055683576 -0.17684105 0.26354894 0.097738035 0.13124944 0.023833118 0.11591725
-0.022060238 0.21023111 -0.008314374 0.006083134 -0.34331402 0.3456342 -0.11610545 0.17672172
-0.13714491 -0.37997714 0.4863281 -0.22327715 -0.26651332 -0.31673387 -0.24768475 0.30223984
0.055215854 0.026520124 -0.1561292 0.34153414 0.43444765 0.055521555 -0.12740885 0.34727007
0.19529368 0.25350413 -0.023795132 0.07322239 0.008036362 -0.09655066 0.104774706 -0.028697647
-0.076822646 0.11771179 -0.14099966 -0.3544525 -0.13767321 -0.24139811 -0.10682574 0.38029924
0.010802451 0.044629302 -0.52043813 -1.9744527 -0.43426806 0.2956899 0.15942863 -0.57710314
-2.597651 -0.7391009 -0.064719796 0.24497125 0.07615618 -0.3236334 -0.28626385 0.113005236
0.16421497 0.37766457 -0.108166635 0.03975856 0.053803872 0.12519366 0.29023606 0.25229824
-0.047114816 -0.30883604 0.012152696 -0.108603425 0.09975547 -0.18631425 -0.021919047 0.11271254
-0.047497068 -0.10060876 0.04176559 -0.033815537 0.14274848 0.13778168 0.13999474 0.023577854
0.07206714 -0.07534409 0.042942245 0.069961175 0.103787564 -0.09044243 0.21084455 0.54674536
0.17148592 -0.15377013 0.03390141 -0.154443 0.3668844 -0.08955045 -0.2187076 0.15304857
-0.2881983 0.29297528 -0.12055768 -0.06584242 -0.29547766 -0.16327411 0.14310388 -0.15645465
0.054653697 -0.11381496 -0.223666 0.29817867 -0.21560219 -0.018534042 -0.103974506 -0.022147823
-0.0132001 0.024775524 0.059230056 -0.04446862 -0.049093816 0.09903238 0.075386524 0.16420664
-0.292432 0.15657873 -0.07482596 -0.0933903 0.3951686 -0.4013632 -0.006655302 0.2596044
0.121092066 0.10310381 -0.50867563 -0.0020870136 0.195674 0.02369558 0.08837604 -0.3383104
00000000: 715e 2abd d2d5 06bd 1be9 8abd d54d 17be
00000010: 7367 fdbe aa44 163e 539d 43be ec06 263d
00000020: a1da 30be beb9 09be d50b 183e 3c4b 3fbb
00000030: b8ec d3bc 05b3 fc3d 9f45 6fbe 943f 9a3c
00000040: 2cf0 c23d 242d eebc 7e1b 033e 0ba9 d33c
00000050: 9c28 753e 5ae0 933e 10d1 5c3e 5808 843e
00000060: a67c 7c3e fe20 a53d 7170 38bd 7f1a a23e
00000070: 9f30 1a3e 15fe 48be 7539 60be a8c9 e13c
00000080: 49e5 aa3e 1ec4 d43d 6317 7ebe 7999 e2be
00000090: 8607 963b 33d5 a33e c8f5 be3c 9dd8 03be
000000a0: 361d 6cbe 7f3b a83d 7350 9d3d b119 b1bd
000000b0: 0baa 7fbe 893a 2fbd f6a8 fb3d 408d 5b3e
000000c0: 9b77 173e 4960 cabd 6fc9 83bd 21f4 c1bd
000000d0: 1afc fdbd ad66 bbbe c11b ce3e 6cf4 d5bd
000000e0: fb58 7bbe 7614 64bd d215 35be e3ef 863e
000000f0: e12a c83d 4166 063e ac3d c33c 0666 ed3d
00000100: acb7 b4bc d346 573e 0339 08bc 0755 c73b
00000110: dbc6 afbe f7f6 b03e b2c8 edbd 8af6 343e
00000120: b76f 0cbe 5d8c c2be ffff f83e c4a2 64be
00000130: 6f74 88be f12a a2be 12a1 7dbe 2ebf 9a3e
00000140: 052a 623d bb40 d93c 55e0 1fbe 90dd ae3e
00000150: ec6f de3e 926a 633d 7777 02be 62cd b13e
00000160: 11fb 473e 4bcb 813e 02ee c2bc 9ff5 953d
00000170: f2aa 033c 5abc c5bd 1f94 d63d 5417 ebbc
00000180: 3155 9dbd e112 f13d 3762 10be cc7a b5be
00000190: 35fa 0cbe 1131 77be 74c7 dabd 95b6 c23e
000001a0: c3fc 303c 37cd 363d 6f3b 05bf deba fcbf
000001b0: 6258 debe ab64 973e 4241 233e 08bd 13bf
000001c0: ea3f 26c0 b735 3dbf d08b 84bd bed9 7a3e
000001d0: c5f7 9b3d 47b3 a5be 2d91 92be 4a6f e73d
000001e0: f827 283e 405d c13e 7886 ddbd dfd9 223d
000001f0: 7361 5c3d c432 003e d299 943e 3c2d 813e
00000200: 77fb 40bd c21f 9ebe 1a1c 473c 796b debd
00000210: 994c cc3d 2ac9 3ebe 938f b3bc d5d5 e63d
00000220: 498c 42bd f70b cebd 6512 2b3d 2982 0abd
00000230: a82c 123e a416 0d3e c85a 0f3e 5826 c13c
00000240: f097 933d 014e 9abd 35e4 2f3d ce47 8f3d
00000250: 938e d43d e139 b9bd a2e7 573e 81f7 0b3f
00000260: 019a 2f3e eb75 1dbe 34dc 0a3d 4e26 1ebe
00000270: 46d8 bb3e 3a66 b7bd e3f4 5fbe c4b8 1c3e
00000280: ba8e 93be db00 963e f2e6 f6bd 64d8 86bd
00000290: d948 97be 5431 27be d389 123e a635 20be
000002a0: 8edc 5f3d d117 e9bd b308 65be e0aa 983e
000002b0: d2c6 5cbe b4d4 97bc 96f0 d4bd 5a6f b5bc
000002c0: 3b45 58bc 0af6 ca3c 379b 723d ba24 36bd
000002d0: 9916 49bd 7dd1 ca3d 4064 9a3d c925 283e
000002e0: a6b9 95be 2d56 203e 5a3e 99bd 6a43 bfbd
000002f0: 8a53 ca3e 7a7f cdbe b814 dabb deea 843e
00000300: 1eff f73d 1728 d33d 9138 02bf 47c6 08bb
00000310: c45e 483e 3c1d c23c 7ffe b43d 0537 adbe

bias f4 [8]
-0.017243473 0.029287044 0.0027529038 -0.17429456 0.35199836 -0.12097071 0.13378035 -0.033784572
00000000: 2f42 8dbc 62eb ef3c 106a 343b 467a 32be
00000010: 2139 b43e 7ebf f7bd b7fd 083e b161 0abd

weight f4 [16, 8, 5, 5]
-0.016106743 0.048796777 -0.14466108 -0.18442884 -0.014762112 -0.20113277 0.040001687 -0.010611067
0.08856611 -0.15267086 -0.063397445 0.01189859 -0.047666498 0.040759552 0.02505043 0.16041614
0.15503114 -0.03296 -0.091412865 -0.09937005 0.19917333 0.19553873 -0.010257311 -0.16681261
-0.03086974 -0.3438142 -0.29163408 0.02446519 -0.030672945 0.04057684 0.044846658 -0.027992794
0.19131202 0.19759281 0.14754824 0.034631114 0.018325958 0.0016621595 0.06610944 -0.053972162
0.059645776 0.07941104 0.05887827 0.025641488 -0.1430556 0.043234095 0.14683075 -0.11286528
0.33676618 -0.0340275 0.09355758 0.44271183 0.7265499 0.13309616 -0.24282667 -0.085864745
-0.0662722 0.040652215 0.27680036 -0.009300682 -0.032786608 0.14505166 -0.018541835 -0.21185277
-0.14852925 0.13646655 0.035681248 0.12878504 -0.038213458 -0.116609454 0.21174742 0.15244508
0.28446957 0.38941357 -0.09779238 0.038899343 0.27199572 0.41603145 -0.010786218 -0.43333375
-0.010991468 0.0050000357 0.059257135 -0.01766736 0.012877729 0.19678617 -0.034590423 -0.15667124
-0.18116821 -0.04009504 0.13432285 -0.043061674 -0.3590705 -0.3058627 0.14094642 0.2308182
-0.112722754 -0.39663953 -0.15901546 0.1120607 0.3242629 0.38821626 -0.040389545 0.39249957
0.0058600847 0.0405629 0.24939148 0.25001433 0.15830584 0.16980118 -0.23053174 -0.056976452
0.2571665 0.156093 0.12558423 -0.3389545 0.012025027 0.058668096 -0.015974564 0.08761987
-0.34542906 0.089785784 0.17310286 -0.10565711 0.06301907 -0.39499462 -0.61910963 -0.29216537
-0.19769795 -0.2761131 -0.14500403 -0.011517539 -0.029734531 -0.13393606 -0.12538499 -0.053661857
-0.072115116 -0.023674652 -0.05643215 -0.017408341 -0.024107777 0.015081108 0.07841694 0.036546625
-0.049514394 0.13298033 0.25697535 0.12289071 0.08614391 -0.087326236 0.005526947 -0.6194972
-0.37407538 0.037873182 -0.1635199 -0.082416095 0.0864728 -0.11021924 -0.0070598614 0.06455833
-0.1065848 0.07917999 -0.07099427 0.03347775 -0.016887145 -0.18960422 0.13519156 0.048381403
0.09624197 0.009112692 0.15785664 0.063049 0.044907063 0.10852506 0.19936353 -0.3488805
0.0153077245 -0.2526151 0.096829936 -0.09067971 -0.12926811 0.0077790925 -0.035881545 0.09980907
0.15189911 -0.21258695 0.031915687 -0.047452644 -0.0140291955 -0.06544349 -0.028967753 -0.098162465
-0.03133707 0.05726889 0.05840142 0.007704861 0.21927215 0.2637616 0.19329685 0.11508013
-0.20842633 -0.044584244 0.23956105 -0.19972976 0.22370417 0.108773254 -0.16176869 -0.47827977
-0.28399098 -0.0723174 -0.1717816 -0.32280174 -0.4656107 0.046824165 -0.10134852 -0.07943162
-0.06264495 -0.15356596 -0.248343 -0.010344136 0.08028739 0.0846231 0.017997034 -0.1635083
-0.2978363 -0.2664252 -0.032109383 -0.2609753 -0.119720764 0.28135204 -0.10249286 -0.016733551
-0.039038215 0.19616912 0.059185505 -0.052061997 -0.3215672 -0.5105629 0.14583394 0.014422778
0.27105194 -0.103915155 -0.27154133 -0.08639047 0.12675035 -0.025411537 0.18424945 -0.20857644
-0.42836383 -0.121874824 0.30447003 -0.06481296 -0.06103078 0.15867229 -0.34243923 0.075592995
00000000: 4af2 83bc 21df 473d 0922 14be eada 3cbe
00000010: c9dc 71bc c0f5 4dbe cfd8 233d 0ada 2dbc
00000020: 2662 b53d c055 1cbe 85d6 81bd 4ef2 423c
00000030: f23d 43bd 7df3 263d 8f36 cd3c 2144 243e
00000040: 7cc0 1e3e 1101 07bd ab36 bbbd 8682 cbbd
00000050: 18f4 4b3e 4e3b 483e 480e 28bc edd0 2abe
00000060: 89e2 fcbc 6a08 b0be 1051 95be 396b c83c
00000070: d445 fbbc e733 263d 21b1 373d 2551 e5bc
00000080: 4ce7 433e c555 4a3e e316 173e 5bd9 0d3d
00000090: 5220 963c d1dc d93a 6364 873d ea11 5dbd
000000a0: 214f 743d 41a2 a23d 572a 713d 190e d23c
000000b0: 2b7d 12be 3c16 313d cd5a 163e e925 e7bd
000000c0: 9e6c ac3e 6b60 0bbd 1e9b bf3d 20ab e23e
000000d0: 2dff 393f 5c4a 083e 8ea7 78be dbd9 afbd
000000e0: b8b9 87bd f082 263d c7b8 8d3e e361 18bc
000000f0: 404b 06bd 6c88 143e 0ce5 97bc efef 58be
00000100: 0d18 18be e3bd 0b3e 8026 123d 3ae0 033e
00000110: b785 1cbd f0d0 eebd 51d4 583e 901a 1c3e
00000120: ffa5 913e 3761 c73e 5f47 c8bd eb54 1f3d
00000130: 0643 8b3e 1302 d53e adb8 30bc ecdd ddbe
00000140: 8f15 34bc 57d7 a33b 9cb7 723d 24bb 90bc
00000150: 1cfd 523c 5082 493e b0ae 0dbd 6d6e 20be
00000160: 2984 39be b23a 24bd ee8b 093e 7061 30bd
00000170: 17d8 b7be 099a 9cbe 4254 103e 9b5b 6c3e
00000180: 30db e6bd 5614 cbbe f3d4 22be 1580 e53d
00000190: c905 a63e 48c4 c63e 826f 25bd b4f5 c83e
000001a0: f405 c03b 4925 263d 7b60 7f3e e101 803e
000001b0: ed1a 223e 5ce0 2d3e 8310 6cbe 2460 69bd
000001c0: 54ab 833e d8d6 1f3e 2799 003e 728b adbe
000001d0: 9e04 453c f54d 703d 17dd 82bc 0c72 b33d
000001e0: 14dc b0be 9ce1 b73d e041 313e c162 d8bd
000001f0: 2410 813d bc3c cabe f87d 1ebf b396 95be
00000200: 5571 4abe b25e 8dbe f07b 14be 0fb4 3cbc
00000210: d595 f3bc 8926 09be ec64 00be 89cc 5bbd
00000220: 17b1 93bd 58f1 c1bc 6625 67bd f09b 8ebc
00000230: ac7d c5bc c016 773c 1099 a03d eab1 153d
00000240: 9bcf 4abd ff2b 083e 4692 833e 20ae fb3d
00000250: 386c b03d 19d8 b2bd 641b b53b 5e97 1ebf
00000260: cf86 bfbe e920 1b3d c371 27be c5c9 a8bd
00000270: a718 b13d a0ba e1bd 6956 e7bb 2837 843d
00000280: 2249 dabd 1e29 a23d 7265 91bd f71f 093d
00000290: e956 8abc 9c27 42be a86f 0a3e 942b 463d
000002a0: 831a c53d 674d 153c 2ca5 213e d61f 813d
000002b0: 78f0 373d 6342 de3d f425 4c3e 77a0 b2be
000002c0: 40cd 7a3c c456 81be c64e c63d 49b6 b9bd
000002d0: dc5e 04be c2e7 fe3b 87f8 12bd b368 cc3d
000002e0: 718b 1b3e 65b0 59be 06ba 023d b45d 42bd
000002f0: b6da 65bc 3d07 86bd c84d edbc 6709 c9bd
00000300: 4d5b 00bd c992 6a3d 5436 6f3d 0f79 fc3b
00000310: e188 603e c30b 873e 9cef 453e 22af eb3d
00000320: b66d 55be f89d 36bd 7e4f 753e f585 4cbe
00000330: b512 653e 83c4 de3d b1a6 25be 16e1 f4be
00000340: 4467 91be 251b 94bd 84e7 2fbe 4546 a5be
00000350: 8764 eebe b2ca 3f3d d08f cfbd 0cad a2bd
00000360: ff4b 80bd 6540 1dbe a14d 7ebe 737a 29bc
00000370: b76d a43d e04e ad3d 846e 933c b86e 27be
00000380: 007e 98be e268 88be 2185 03bd 8e9e 85be
00000390: 2930 f5bd 600d 903e c7e7 d1bd cd14 89bc
000003a0: 89e6 1fbd 8fe0 483e 806c 723d f63e 55bd
000003b0: 75a4 a4be 40b4 02bf 7e55 153e 844d 6c3c
000003c0: 52c7 8a3e 78d1 d4bd 7707 8bbe 7ded b0bd
000003d0: d8ca 013e db2b d0bc e3ab 3c3e 1095 55be
000003e0: 8152 dbbe 8299 f9bd 7fe3 9b3e a8bc 84bd
000003f0: 69fb 79bd fd7a 223e 3254 afbe 80d0 9a3d

bias f4 [16]
-0.088081695 0.076058604 -0.025124364 0.040115524 0.08392929 0.06094071 0.28541517 0.15439096
0.012062776 0.40961596 0.38434374 0.007880985 0.054814618 0.16839933 0.2737215 -0.23867863
00000000: 2d64 b4bd 9dc4 9b3d 9cd1 cdbc 2d50 243d
00000010: 1fe3 ab3d f79c 793d f021 923e aa18 1e3e
00000020: f3a2 453c 2fb9 d13e b4c8 c43e 3f1f 013c
00000030: 4b85 603d e070 2c3e 3925 8c3e 2c68 74be

weight f4 [128, 256]
0.10769003 0.34005156 -0.33813882 -0.40375832 -0.008549934 0.3918291 -0.03183101 0.12983228
-0.04661604 0.2908066 -0.64352214 -0.011813671 -0.022930304 -0.028910933 -0.99572027 0.02893413
0.018527463 0.26949182 0.13666815 0.11573987 0.00022174786 0.2614316 -0.04107067 -0.050315652
-0.14360845 -0.32926476 -0.29097423 -0.19329351 -0.07601741 -0.1639643 0.07755811 -0.03825575
-0.04422264 0.17065983 -0.24352455 -0.06503465 -0.057449963 -0.05980083 -0.045762762 0.031237561
0.055361472 -0.046660915 0.21352549 -0.12869346 0.025513284 0.32767874 -0.1210451 0.028481808
-0.026262408 -0.35635707 0.19930802 0.065415815 -0.15598805 -0.079477765 -0.1342618 -0.039564986
-0.02271573 0.019228298 -0.14555253 0.25929362 0.22054859 -0.10875647 0.018398881 -0.017256195
-0.3379507 -0.06601729 -0.012840083 -0.27708805 -0.02869322 0.03653909 0.100766286 0.016277688
-0.071436845 0.07352757 0.048850823 -0.20511584 0.042705487 -0.041358907 -0.18572797 -0.1612847
0.15784864 -0.21413498 -0.17087607 -0.40351203 -0.14721829 -0.078063466 0.004979265 0.12352944
0.10492236 -0.18711841 0.04204349 0.16846494 0.04827406 -0.0001890515 0.2698175 0.065191254
-0.17209217 -0.1171144 0.13415168 0.13033368 -0.04180514 -0.024047282 0.015708763 0.059019815
-0.058297478 -0.005831004 -0.025631605 0.05585357 0.023208704 0.09579785 -0.1478041 0.055936657
-0.37291837 -0.2516644 -0.14962126 0.17552775 0.079671174 0.170431 -0.09500908 -0.09953181
-0.18863465 0.014641724 -0.3412049 -0.054159764 -0.0687062 0.042186067 0.092900336 -0.02426643
0.059155192 -0.042473298 -0.006725728 -0.06757755 0.0015253208 0.017768327 -0.027779358 -0.026387164
-0.03903634 0.0051044663 -0.08013482 0.040799197 0.05404122 0.0022493748 -0.010490306 -0.016433027
-0.1490265 -0.12268105 -0.0071979477 -0.06178086 0.20366943 -0.012089219 0.14490218 0.14630143
-0.0084779 -0.009384607 -0.026300376 0.09411381 0.18974254 -0.008884304 -0.007435109 -0.14104068
-0.6005048 -0.16241278 -0.05073485 -0.012974872 0.09548554 0.05274666 0.15747124 -0.22908841
-0.09926644 0.24122462 -0.19208564 0.21242294 0.012819604 0.25186023 -0.04199377 -0.084330365
-0.09490249 0.35018957 0.10223362 -0.32376996 -0.042645622 0.086059436 -0.10187094 0.19603468
-0.07353665 -0.10310447 -0.048124682 0.14023222 -0.037486844 -0.3969006 -0.45595706 0.21002825
-0.13026823 -0.42706984 0.07185093 0.11773268 -0.2270769 -0.038645644 -0.17227027 0.0253883
0.0054860655 0.035804942 -0.07560186 -0.13158701 0.005408274 0.04397973 0.10317719 -0.17476045
-0.17875567 -0.22481321 -0.102436766 -0.3902549 0.06004494 -0.11724514 0.14131425 0.062402967
0.17816603 0.08009376 0.023664888 0.09796674 -0.15484034 0.25277406 0.40542147 0.019413339
0.028243788 0.17459124 -0.152913 -0.12732032 0.048552427 0.026151195 -0.07034007 0.08621353
0.02914544 0.014193844 0.020197209 0.049001865 0.19035871 -0.064120285 -0.1516515 -0.054656375
-0.13768448 -0.16639213 0.04976054 0.047475453 0.016546207 0.11120715 -0.11641405 0.09455102
0.1198084 -0.05283675 -0.24065283 0.015166336 -0.17071475 0.022829004 -0.22697252 -0.13072562
00000000: 978c dc3d 3d1b ae3e 8820 adbe 69b9 cebe
00000010: 0615 0cbc d39d c83e 3c61 02bd c1f2 043e
00000020: 76f0 3ebd 9ae4 943e debd 24bf 218e 41bc
00000030: 55d8 bbbc 9fd6 ecbc 86e7 7ebf 4507 ed3c
00000040: e8c6 973c d5fa 893e bcf2 0b3e 0609 ed3d
00000050: fd84 6839 5dda 853e b839 28bd c917 4ebd
00000060: 180e 13be 6495 a8be 93fa 94be bcee 45be
00000070: 04af 9bbd 42e6 27be c9d6 9e3d 10b2 1cbd
00000080: cd22 35bd 73c1 2e3e 805e 79be e330 85bd
00000090: a750 6bbd b7f1 74bd bc71 3bbd eae5 ff3c
000000a0: b6c2 623d 841f 3fbd 6da6 5a3e 38c8 03be
000000b0: 3c01 d13c 82c5 a73e 7ee6 f7bd ae52 e93c
000000c0: 4324 d7bc 6f74 b6be 6717 4c3e baf8 853d
000000d0: 55bb 1fbe 3dc5 a2bd ed7b 09be e50e 22bd
000000e0: 5716 babc aa84 9d3c b90b 15be 22c2 843e
000000f0: 7dd7 613e b6bb debd 40b9 963c dd5c 8dbc
00000100: e007 adbe 1334 87bd 365f 52bc 7cde 8dbe
00000110: 0b0e ebbc 03aa 153d 8e5e ce3d c958 853c
00000120: 7b4d 92bd 9f95 963d cd17 483d e309 52be
00000130: f3eb 2e3d f567 29bd 792f 3ebe d127 25be
00000140: 13a3 213e 3346 5bbe 23fa 2ebe 2199 cebe
00000150: 64c0 16be bddf 9fbd 1a29 a33b 01fd fc3d
00000160: 89e1 d63d f89b 3fbe cb35 2c3d 1382 2c3e
00000170: 05bb 453d 203c 46b9 8525 8a3e fe82 853d
00000180: ee38 30be add9 efbd 0f5f 093e 3176 053e
00000190: de3b 2bbd cefe c4bc aaaf 803c c3be 713d
000001a0: 56c9 6ebd 0212 bfbb 5ff9 d1bc b7c6 643d
000001b0: 2e20 be3c aa31 c43d f559 17be d61d 653d
000001c0: 28ef bebe 28da 80be 5136 19be 8cbd 333e
000001d0: a42a a33d 7785 2e3e 1f94 c2bd 55d7 cbbd
000001e0: 7129 41be d7e3 6f3c 69b2 aebe a1d6 5dbd
000001f0: d6b5 8cbd 4ccb 2c3d 8842 be3d 64ca c6bc
00000200: b74c 723d 7bf8 2dbd 7f63 dcbb 1966 8abd
00000210: 46ed c73a e28e 913c 8991 e3bc e529 d8bc
00000220: 92e4 1fbd 5e43 a73b b91d a4bd 0f1d 273d
00000230: 545a 5d3d 3f6a 133b 88df 2bbc 8e9e 86bc
00000240: 679a 18be 3440 fbbd c3dc ebbb ed0d 7dbd
00000250: b88e 503e dc11 46bc 3d61 143e 0bd0 153e
00000260: e4e6 0abc e5c1 19bc e373 d7bc bebe c03d
00000270: de4b 423e 798f 11bc 37a2 f3bb f86c 10be
00000280: afba 19bf 894f 26be 59cf 4fbd 8f94 54bc
00000290: ec8d c33d e20c 583d 2440 213e 2796 6abe
000002a0: 344c cbbd 9603 773e 19b2 44be 6685 593e
000002b0: 5109 523c d3f3 803e a901 2cbd 66b5 acbd
000002c0: 3d5c c2bd 0c4c b33e dc5f d13d 2dc5 a5be
000002d0: 2dad 2ebd ee3f b03d b6a1 d0bd 51bd 483e
000002e0: 629a 96bd 7028 d3bd 631e 45bd 0999 0f3e
000002f0: ce8b 19bd 8e36 cbbe 3473 e9be a511 573e
00000300: 0965 05be e6a8 dabe 9526 933d d51d f13d
00000310: d986 68be e54a 1ebd 9e67 30be 20fb cf3c
00000320: 74c4 b33b 34a8 123d 26d5 9abd bfbe 06be
00000330: e437 b13b 1724 343d 904e d33d 67f4 32be
00000340: ba0b 37be 6f35 66be 5eca d1bd 7ecf c7be
00000350: aff1 753d 381e f0bd afb4 103e 419a 7f3d
00000360: 2871 363e 3208 a43d dedc c13c c9a2 c83d
00000370: 778e 1ebe 9a6b 813e 6793 cf3e b908 9f3c
00000380: 845f e73c 0cc8 323e 3a95 1cbe 4260 02be
00000390: e9de 463d 083b d63c 740e 90bd b890 b03d
000003a0: 6bc2 ee3c 4c8d 683c 9e74 a53c 2eb6 483d
000003b0: 65ed 423e 7f51 83bd 884a 1bbe 5ddf 5fbd
000003c0: 29fd 0cbe b362 2abe b5d1 4b3d 9f75 423d
000003d0: e98b 873c 93c0 e33d 7d6a eebd f7a3 c13d
000003e0: 1b5e f53d 596b 58bd b26d 76be 397c 783c
000003f0: d9cf 2ebe e403 bb3c 7c6b 68be f0dc 05be

bias f4 [128]
0.020168664 -0.059292298 0.057331365 -0.07214905 -0.050520007 0.09527898 -0.048222084 0.10033627
0.03911868 -0.0669499 -0.043405525 0.15285544 -0.07353287 -0.0907343 -0.11928161 0.027149573
-0.009729854 -0.049700644 -0.046127107 0.13825056 0.09797881 0.17704862 -0.0056435424 0.16181554
-0.025787495 0.094281696 -0.03702802 0.029352423 -0.02479098 0.25926757 -0.013130371 -0.010966196
0.030972991 0.07519976 -0.21418963 0.025125202 -0.05519036 0.04250934 0.0211638 0.29281038
0.12347996 0.109082215 0.00088475464 0.21179 -0.03739422 -0.03323548 -0.0933177 -0.061926823
0.18269786 0.08027105 0.043414976 -0.038217817 -0.049073674 -0.06132165 0.21022442 -0.07453511
0.055870052 -0.0661237 -0.089004606 0.03554948 0.22563647 0.08843065 0.25652477 -0.07365541
0.08822101 0.0038514049 0.005867258 0.11522846 0.04285097 0.13553219 0.018300192 0.13128369
-0.11155783 0.03583082 0.19653688 0.159659 -0.076425985 0.085508265 -0.08184977 0.13041762
0.19286905 0.123178214 0.0899781 -0.11848842 -0.10239398 0.0007195426 0.08893645 -0.12064179
-0.04136791 0.14849608 0.13350514 -0.05139345 -0.041377135 0.006991768 0.2128916 -0.10864371
0.25244412 -0.073868096 0.0625432 -0.019657122 0.053155538 0.024953805 0.30180517 0.08759851
-0.053669 -0.032807257 -0.06725204 -0.026295245 -0.07182366 0.17097093 0.07557138 -0.05780533
0.14603028 0.1870365 -0.09357633 -0.06210612 -0.0626467 0.21686375 -0.14358309 -0.04527826
0.09922259 0.17271245 0.07935737 0.06214951 0.012678589 0.14702392 -0.004247002 -0.023212641
00000000: c138 a53c 7bdc 72bd 4bd4 6a3d e2c2 93bd
00000010: 11ee 4ebd a021 c33d 8584 45bd 1a7d cd3d
00000020: e93a 203d 071d 89bd fec9 31bd 2386 1c3e
00000030: 6798 96bd e8d2 b9bd eb49 f4bd c868 de3c
00000040: f769 1fbc e792 4bbd c7ef 3cbd 8e91 0d3e
00000050: 1da9 c83d 3c4c 353e 77ed b8bb f9b2 253e
00000060: 4c40 d3bc c316 c13d b1aa 17bd 7e74 f03c
00000070: 7416 cbbc b8be 843e c520 57bc 8fab 33bc
00000080: 12bb fd3c 5502 9a3d 8754 5bbe 5ed3 cd3c
00000090: 490f 62bd 461e 2e3d b55f ad3c 3eeb 953e
000000a0: 10e3 fc3d 7f66 df3d e1ee 673a 7adf 583e
000000b0: ae2a 19bd ed21 08bd 5a1d bfbd fba6 7dbd
000000c0: 2615 3b3e 2665 a43d e7d3 313d 498a 1cbd
000000d0: 7a01 49bd 692c 7bbd 1245 573e dda5 98bd
000000e0: ffd7 643d dd6b 87bd 0c48 b6bd 559c 113d
000000f0: 3f0d 673e 211b b53d 3757 833e a6d8 96bd
00000100: 38ad b43d da67 7c3b 2142 c03b e6fc eb3d
00000110: 8084 2f3d f3c8 0a3e 49ea 953c 3b6f 063e
00000120: 6e78 e4bd 57c3 123d f740 493e a67d 233e
00000130: 3a85 9cbd f51e af3d daa0 a7bd 328c 053e
00000140: 777f 453e dc44 fc3d 7046 b83d 0faa f2bd
00000150: efb3 d1bd b09f 3c3a 5024 b63d 0b13 f7bd
00000160: 6671 29bd 5b0f 183e 92b5 083e f081 52bd
00000170: 127b 29bd 331b e53b 4100 5a3e 9880 debd
00000180: 5b40 813e 2848 97bd a616 803d f907 a1bc
00000190: 9fb9 593d ec6b cc3c 3586 9a3e d966 b33d
000001a0: 06d4 5bbd e760 06bd 70bb 89bd 2069 d7bc
000001b0: 4818 93bd 0113 2f3e 2bc5 9a3d 48c5 6cbd
000001c0: f688 153e 7f86 3f3e f2a4 bfbd fd62 7ebd
000001d0: ea4c 80bd 8811 5e3e 7207 13be b275 39bd
000001e0: 3735 cb3d 88db 303e 1e86 a23d 7c90 7e3d
000001f0: dbb9 4f3c 708d 163e 6f2a 8bbb 7028 bebc

weight f4 [64, 128]
-0.11931016 -0.029978842 -0.030432727 -0.32115376 -0.07603146 -0.14021693 0.07904035 -0.110753186
-0.153905 0.07167095 0.016386915 -0.08773177 -0.10515038 -0.061001092 -0.077178985 -0.10642253
-0.060208794 -0.2430789 -0.019503329 -0.20695946 -0.09503829 -0.21181932 0.12740299 -0.076707475
-0.0044594314 0.018733012 0.018773537 -0.12922317 -0.0155465705 0.119951725 -0.07119985 -0.07159838
0.017608276 0.028118012 -0.10023855 -0.03998899 0.02173513 -0.022103567 -0.38345706 -0.10562385
0.26109177 -0.15722412 -0.044457916 -0.2195691 -0.050392237 -0.15091892 -0.020432392 -0.113535136
-0.08686667 0.26280499 0.15740281 0.08276854 0.084805205 0.03348451 -0.16511776 -0.05204861
0.09869128 0.0121891005 0.04930462 0.27187362 -0.057640806 -0.10214519 0.21800631 -0.017771106
-0.15014797 0.026725305 -0.14431854 -0.044836424 -0.057124004 0.10329704 0.06906056 -0.26783696
-0.204466 -0.0668932 -0.14468698 -0.1923321 -0.13836758 -0.26050717 -0.2245344 -0.062250216
-0.048978202 -0.026657343 0.18073222 -0.05466432 -0.0130705135 -0.07220357 0.04478831 -0.10620461
-0.08583005 0.14527465 -0.096391775 0.06047593 0.061256427 -0.03673537 -0.2871548 0.0723192
0.0028327447 0.060181525 0.039046396 0.08377216 -0.025221938 -0.014626653 0.08300846 -0.17285493
0.09832849 -0.033761617 -0.087386265 -0.025949161 0.056044992 -0.2157173 0.0016930499 -0.051533654
0.07100835 -0.089838654 -0.0441847 -0.046227757 -0.09864357 0.10247803 0.11910603 0.067009546
0.0008641606 0.12844735 -0.15853068 0.044761393 0.06571338 -0.16533215 0.066726275 -0.036971003
-0.08073315 -0.023186008 0.1700456 -0.013202877 0.07780274 -0.16268966 0.020501474 0.023270445
-0.17625484 0.06617376 0.07595474 0.22673644 -0.29731792 -0.051741183 -0.22925027 -0.1597435
0.06396005 -0.17533925 -0.07089939 -0.11866551 -0.028340088 0.09351274 0.23807621 0.06627796
0.07896154 -0.015866423 0.32680058 0.062653944 -0.037632484 0.1127242 -0.015855968 0.011552713
0.08659141 0.037118785 -0.046219725 0.05004303 -0.038594913 0.016565274 -0.029299062 0.19858283
-0.03134186 0.14276855 -0.070534945 0.023629164 0.042392377 -0.25655773 -0.077472076 0.026147548
0.10338403 -0.024581164 -0.09652817 -0.049809217 0.048455797 0.062506855 -0.10223603 -0.011614794
0.035623416 0.013779043 -0.12991023 -0.022308026 0.18474035 -0.28721926 0.1660647 -0.17683631
0.25870892 -0.17808503 0.13049692 -0.01587698 0.0060889893 0.123187765 -0.21482627 -0.2640992
-0.08219686 0.049392592 0.1671912 0.33735096 -0.3923628 0.017438482 -0.22721036 0.19530612
-0.024489388 0.0017028359 -0.079804465 -0.3118063 0.0569264 -0.03805563 0.06750264 -0.38102755
-0.16494946 -0.012541835 0.13248907 0.0053821737 0.0036408054 -0.077271506 0.07857467 -0.11444405
0.064775385 -0.015056159 0.053887505 -0.012499276 0.022738524 0.04652462 0.21154049 -0.1865982
0.012461877 -0.030468423 -0.030661065 0.1209356 -0.04186727 0.1528983 -0.02289507 0.06641179
0.13627242 -0.087588616 0.021835146 -0.13459396 -0.19787398 0.09480677 -0.30563986 -0.06406063
0.02026653 0.3348765 -0.033303123 -0.06128268 0.00264136 -0.27137753 0.15254505 -0.045626882
00000000: e358 f4bd 3096 f5bc 0e4e f9bc 446e a4be
00000010: 62b6 9bbd 0795 0fbe e8df a13d 91d2 e2bd
00000020: 4699 1dbe 38c8 923d da3d 863c b7ac b3bd
00000030: 1559 d7bd 48dc 79bd 0410 9ebd 0ef4 d9bd
00000040: 7f9d 76bd ade9 78be 72c5 9fbc 2eed 53be
00000050: 6fa3 c2bd 2ae7 58be ee75 023e cf18 9dbd
00000060: 6c20 92bb f975 993c f6ca 993c 1453 04be
00000070: 0bb7 7ebc 40a9 f53d 3ad1 91bd 2ca2 92bd
00000080: 3b3f 903c bf57 e63c de49 cdbd 7fcb 23bd
00000090: df0d b23c 8a12 b5bc 7c54 c4be 5151 d8bd
000000a0: d2ad 853e 5cff 20be 8119 36bd b9d6 60be
000000b0: 1768 4ebd 7d8a 1abe d561 a7bc 1c85 e8bd
000000c0: 27e7 b1bd 608e 863e 342e 213e 8d82 a93d
000000d0: 5aae ad3d 0e27 093d a114 29be ec30 55bd
000000e0: a71e ca3d cbb4 473c a4f3 493d 0533 8b3e
000000f0: c418 6cbd 7f31 d1bd 0c3d 5f3e b694 91bc
00000100: 64c0 19be 07ef da3c 3dc8 13be 66a6 37bd
00000110: dcfa 69bd 668d d33d 9f6f 8d3d ed21 89be
00000120: 895f 51be 4dff 88bd d328 14be b5f2 44be
00000130: 3bb0 0dbe 3261 85be 59ec 65be 15fa 7ebd
00000140: 5e9d 48bd 8060 dabc de11 393e b2e7 5fbd
00000150: b525 56bc 77df 93bd f273 373d cd81 d9bd
00000160: aac7 afbd e1c2 143e 0d69 c5bd 9cb5 773d
00000170: 05e8 7a3d d477 16bd f405 93be 171c 943d
00000180: 92a5 393b e780 763d 1def 1f3d bd90 ab3d
00000190: 3d9e cebc a1a4 6fbc 5700 aa3d e200 31be
000001a0: 7360 c93d 9f49 0abd 92f7 b2bd 5693 d4bc
000001b0: 6f8f 653d ffe4 5cbe 54e9 dd3a f414 53bd
000001c0: d36c 913d 54fd b7bd 04fb 34bd 5159 3dbd
000001d0: a405 cabd 00e0 d13d dded f33d 4d3c 893d
000001e0: d688 623a b487 033e de55 22be b957 373d
000001f0: bd94 863d d54c 29be c9a7 883d e86e 17bd
00000200: 6c57 a5bd 95f0 bdbc 6f20 2e3e e150 58bc
00000210: 0b57 9f3d 1e98 26be b5f2 a73c a9a1 be3c
00000220: 267c 34be 1c86 873d 298e 9b3d 992d 683e
00000230: 0e3a 98be 90ee 53bd 95c0 6abe cd93 23be
00000240: 7dfd 823d 228c 33be b333 91bd e706 f3bd
00000250: 7929 e8bc 9c83 bf3d 40ca 733e bdbc 873d
00000260: 96b6 a13d 4dfa 81bc 6852 a73e b650 803d
00000270: 8524 1abd f2db e63d 60e4 81bc 9747 3d3c
00000280: d656 b13d de09 183d e550 3dbd ecf9 4c3d
00000290: b315 1ebd e6b3 873c 9604 f0bc 4c59 4b3e
000002a0: 5260 00bd eb31 123e a074 90bd f391 c13c
000002b0: a1a3 2d3d 895b 83be aea9 9ebd 6233 d63c
000002c0: 02bb d33d 705e c9bc 90b0 c5bd c004 4cbd
000002d0: 9679 463d 9803 803d 2061 d1bd fa4b 3ebc
000002e0: dce9 113d 7fc1 613c 3007 05be 52bf b6bc
000002f0: 932c 3d3e 670e 93be dd0c 2a3e 9414 35be
00000300: 7f75 843e ec5b 36be fca0 053e 7110 82bc
00000310: 2586 c73b de49 fc3d 6bfb 5bbe 0338 87be
00000320: d456 a8bd e34f 4a3d 2c34 2b3e 44b9 ac3e
00000330: c7e3 c8be 26db 8e3c d5a9 68be 54fe 473e
00000340: f89d c8bc b131 df3a 8670 a3bd 13a5 9fbe
00000350: a82b 693d 38e0 1bbd d33e 8a3d 0b16 c3be
00000360: 83e8 28be 457c 4dbc 37ab 073e f25c b03b
00000370: 949a 6e3b 8640 9ebd c2eb a03d a461 eabd
00000380: f5a8 843d 1cae 76bc 25b9 5c3d c3c9 4cbc
00000390: 2446 ba3c 9a90 3e3d 129e 583e 9913 3fbe
000003a0: e72c 4c3c ea98 f9bc ea2c fbbc 15ad f73d
000003b0: 047d 2bbd 5f91 1c3e 718e bbbc e802 883d
000003c0: ff8a 0b3e a961 b3bd 9fdf b23c 00d3 09be
000003d0: 7a9f 4abe 0d2a c23d d47c 9cbe 3832 83bd
000003e0: fe05 a63c ef74 ab3e db68 08bd 8c03 7bbd
000003f0: ab1a 2d3b fff1 8abe c534 1c3e 41e3 3abd

bias f4 [64]
-0.094206214 0.26072055 -0.06846413 -0.11588324 0.124399744 0.039772745 -0.016398316 0.2065183
0.10993357 0.13207836 0.04493398 0.03970445 0.2222696 -0.13005412 0.26032242 -0.022574846
-0.015275043 0.019602766 -0.006291972 0.033660375 0.10769346 -0.057644878 0.28761774 -0.046482794
0.13784069 0.21156734 0.0035359077 -0.023730535 0.1471843 0.07535446 -0.04312005 0.22134309
0.15964398 -0.08055906 0.041429047 0.16735666 0.16153935 0.110269144 0.08726609 0.039773785
0.11229978 -0.1676209 -0.15250738 0.08654106 0.07490676 0.036226865 0.17986888 0.08462788
-0.07892601 0.157512 -0.10278957 0.10059791 0.3349997 -0.023354324 0.10335159 0.19981813
0.08400305 0.03517606 0.1709127 0.021460762 0.25446695 -0.20684086 0.21836637 -0.13258731
00000000: 30ef c0bd 2a7d 853e ec36 8cbd 3154 edbd
00000010: 4bc5 fe3d bfe8 223d c355 86bc 8979 533e
00000020: da24 e13d 8d3f 073e b10c 383d 22a1 223d
00000030: a49a 633e e82c 05be fb48 853e e2ee b8bc
00000040: 2d44 7abc fb95 a03c e32c cebb 76df 093d
00000050: 648e dc3d 091d 6cbd a242 933e be64 3ebd
00000060: 1c26 0d3e 1ca5 583e b0ba 673b 8a66 c2bc
00000070: 7bb7 163e 7053 9a3d a69e 30bd c3a7 623e
00000080: b679 233e 26fc a4bd 81b1 293d 8b5f 2b3e
00000090: 926a 253e cad4 e13d 90b8 b23d d6e9 223d
000000a0: 6dfd e53d d0a4 2bbe e52a 1cbe 703c b13d
000000b0: b768 993d 9f62 143d 8c2f 383e 6251 ad3d
000000c0: f6a3 a1bd d34a 213e 5783 d2bd 4706 ce3d
000000d0: 1585 ab3e 9151 bfbc 00aa d33d 209d 4c3e
000000e0: cb09 ac3d c614 103d bd03 2f3e 7bce af3c
000000f0: 7e49 823e 17ce 53be 6f9b 5f3e f8c4 07be

weight f4 [10, 64]
0.041381206 -0.13976565 -0.16080672 -0.04285028 -0.054815646 0.27419627 -0.07856918 -0.15359716
-0.4969457 0.110094294 0.13437518 0.21926714 -0.24987724 0.19165662 0.053523887 -0.20950782
0.1743117 -0.48195487 -0.10580653 -0.3661815 0.017622897 -0.054636106 0.077275425 -0.4444459
0.34236035 -0.05195447 -0.41367152 -0.21171568 -0.40204716 0.051846355 0.02803465 0.13154808
-0.5245877 -0.11627438 0.10373333 -0.0037900293 -0.3382468 0.03425446 -0.3171353 0.027992072
0.0002896461 0.090877 0.095346436 -0.12299168 0.14806305 0.07301182 0.13825186 0.2202789
0.08544714 -0.4007464 -0.16627306 -0.2398521 0.030705918 -0.0015204315 -0.4117189 0.18820012
-0.12821183 0.2027318 -0.1234138 -0.5570817 -0.26319265 -0.076073825 0.17669946 -0.012176706
-0.065759964 -0.2501497 0.26100057 -0.1345112 0.24680306 0.247174 -0.51381433 -0.6189741
-0.14910567 -0.31994188 -0.1585276 -0.4555586 -0.2792468 -0.42818704 -0.28324202 -0.14150126
0.372448 0.0953434 -0.2524173 -0.46789962 0.14732412 0.062315725 -0.089117475 0.26061103
-0.6795094 -0.44542566 -0.26167485 0.17104948 -0.1830266 0.2739942 -0.04157658 -0.8465543
-0.18815136 0.3190605 0.025742339 0.54891926 0.36896795 0.10139118 -0.0683113 -0.63293856
-0.1604207 -0.1708994 -0.07943491 -0.13395686 0.08915714 -0.070694655 -0.21742442 -0.21294387
0.5811095 0.2577598 -0.42792144 0.20185089 -0.07802779 -0.010114483 -0.13148166 -0.057833757
-0.18424153 -0.5796523 0.07602492 -0.2589099 -0.18113816 0.05187544 0.06498793 -0.11794285
-0.06858436 0.10954272 -0.29011393 0.04743282 -0.47269347 -0.30343038 -0.38958794 0.018455978
0.14777592 -0.21002957 0.18548812 0.11641703 -0.0016624831 -0.058857065 -0.29096317 -0.1379223
-0.3851765 0.10616769 -0.08963719 0.124152616 0.22865964 -0.06623159 -0.053327512 -0.024990179
0.0063385814 0.04568465 -0.015994595 0.079575054 -0.2519511 -0.09633747 0.032335386 0.20203951
0.15652005 -0.32012373 0.0024415832 0.25178066 0.028691428 0.13879639 -0.07368688 0.1309453
-0.0779999 0.062129185 -0.11909131 0.0743914 -0.10772526 -0.006994202 -0.38030246 0.32157108
-0.62242377 0.04548108 -0.21185866 -0.1472585 0.14096081 -0.042689968 -0.08240829 0.16586757
-0.13305636 0.1180725 -0.59490335 0.04175993 0.07136659 -0.013366788 -0.538462 -0.0053096274
-0.34052676 0.27889812 -0.22325964 -0.08922658 0.22416878 0.043124646 0.0148093365 -0.018929401
-0.03729362 -0.16234396 -0.012505567 0.04618034 0.086096846 -0.08199698 0.19141833 -0.3539186
0.12388534 -0.12816657 -0.81946534 0.07388209 0.1539126 0.21858443 0.17174158 -0.013433269
-0.43697575 0.14215863 -0.80767655 -0.0073464294 0.044233635 -0.24659176 0.0652 -0.07920834
0.04137771 0.039941225 -0.20464702 0.04305564 -0.52781254 -0.009194185 -0.06785992 -0.10044321
-0.018319251 -0.5446511 -0.061725583 -0.61793303 0.17434068 0.01858484 0.23695998 -0.2437799
-0.2421598 0.022460027 -0.3522704 0.06212883 -0.47181657 0.026234234 0.20673743 0.12341173
0.006694396 -0.29981324 -0.4272426 -0.15252694 -0.2973324 -0.10817667 -0.5247468 -0.13176446
00000000: 577f 293d ba1e 0fbe 84aa 24be c683 2fbd
00000010: 5f86 60bd 7463 8c3e e1e8 a0bd 9348 1dbe
00000020: ab6f febe 1e79 e13d a699 093e 9187 603e
00000030: d2df 7fbe a241 443e dd3b 5b3d 3889 56be
00000040: c47e 323e cac2 f6be 18b1 d8bd 247c bbbe
00000050: e55d 903c 1cca 5fbd 9442 9e3d 6a8e e3be
00000060: db49 af3e 36ce 54bd c1cc d3be ffcb 58be
00000070: 20d9 cdbe d85c 543d eca8 e53c 8ab4 063e
00000080: 614b 06bf 4321 eebd 2472 d43d 2462 78bb
00000090: af2e adbe 684e 0c3d 8f5f a2be a14f e53c
000000a0: a4db 9739 b81d ba3d fe44 c33d 10e3 fbbd
000000b0: d79d 173e 3987 953d e591 0d3e cb90 613e
000000c0: e9fe ae3d a22e cdbe 7c43 2abe ca9b 75be
000000d0: fa8a fb3c 3749 c7ba d2cc d2be 88b7 403e
000000e0: f649 03be ed98 4f3e 60c0 fcbd e89c 0ebf
000000f0: 30c1 86be 98cc 9bbd b4f0 343e cf80 47bc
00000100: 29ad 86bd 9f13 80be dea1 853e 4ebd 09be
00000110: f1b9 7c3e 2e1b 7d3e 5689 03bf 1675 1ebf
00000120: 28af 18be 6ccf a3be 0f55 22be fa3e e9be
00000130: 70f9 8ebe 553b dbbe 1905 91be b5e5 10be
00000140: 81b1 be3e 6743 c33d d73c 81be 8a90 efbe
00000150: 22dc 163e c63e 7f3d 3983 b6bd cf6e 853e
00000160: 54f4 2dbf d50e e4be 3ffa 85be 9827 2f3e
00000170: 536b 3bbe f848 8c3e 344c 2abd c8b7 58bf
00000180: c0aa 40be e65b a33e 99e1 d23c f985 0c3f
00000190: 5ee9 bc3e 2ea6 cf3d cbe6 8bbd 4308 22bf
000001a0: 5345 24be 4100 2fbe c5ae a2bd fd2b 09be
000001b0: 0598 b63d 5cc8 90bd 82a4 5ebe f50d 5abe
000001c0: 98c3 143f 18f9 833e 8518 dbbe 00b2 4e3e
000001d0: 09cd 9fbd 37b7 25bc 21a3 06be 17e3 6cbd
000001e0: d0a9 3cbe 1864 14bf f4b2 9b3d d78f 84be
000001f0: 487c 39be 577b 543d 6418 853d 058c f1bd
00000200: f575 8cbd ef57 e03d d089 94be eb48 423d
00000210: e104 f2be 3a5b 9bbe 1278 c7be fe30 973c
00000220: 9252 173e fe11 57be 99f0 3d3e 0d6c ee3d
00000230: ade7 d9ba 1b14 71bd 20f9 94be 813b 0dbe
00000240: db35 c5be 726e d93d b493 b7bd ba43 fe3d
00000250: c125 6a3e 6ea4 87bd f36d 5abd 34b8 ccbc
00000260: e0b3 cf3b d41f 3b3d 1907 83bc 3ff8 a23d
00000270: bcff 80be 944c c5bd 1c72 043d 72e3 4e3e
00000280: cb46 203e 42e7 a3be f802 203b 65e9 803e
00000290: 490a eb3c a420 0e3e 26e9 96bd 8616 063e
000002a0: 69be 9fbd 2c7b 7e3d 25e6 f3bd 855a 983d
000002b0: 109f dcbd 9e2f e5bb 01b7 c2be f7a4 a43e
000002c0: 2a57 1fbf 5e4a 3a3d 7af1 58be efca 16be
000002d0: 0858 103e addb 2ebd adc5 a8bd 30d9 293e
000002e0: ed3f 08be ffcf f13d 964b 18bf 760c 2b3d
000002f0: a628 923d 5f00 5bbc a5d8 09bf 62fc adbb
00000300: 8659 aebe bccb 8e3e 2d9e 64be 6dbc b6bd
00000310: 808c 653e 78a3 303d dca2 723c d511 9bbc
00000320: 32c1 18bd 7f3d 26be 26e4 4cbc 9927 3d3d
00000330: 8b53 b03d 08ee a7bd 2b03 443e d234 b5be
00000340: 99b7 fd3d 193e 03be 7bc8 51bf 7e4f 973d
00000350: 449b 1d3e 99d4 5f3e 06dd 2f3e 3717 5cbc
00000360: 49bb dfbe 0892 113e e4c3 4ebf 51ba f0bb
00000370: 542e 353d 8d82 7cbe 9487 853d fb37 a2bd
00000380: ac7b 293d 6999 233d fd8e 51be 1c5b 303d
00000390: b91e 07bf 35a3 16bc 24fa 8abd 2bb5 cdbd
000003a0: 4112 96bc 416e 0bbf f7d3 7cbd dc30 1ebf
000003b0: 5d86 323e 3c3f 983c a3a5 723e 70a1 79be
000003c0: bdf8 77be 17fe b73c c95c b4be cd7a 7e3d
000003d0: f191 f1be 2de9 d63c fab2 533e 4abf fc3d
000003e0: aa5c db3b 1f81 99be 8bbf dabe 0630 1cbe
000003f0: f43b 98be bb8b ddbd ce55 06bf 43ed 06be

bias f4 [10]
0.007845903 -0.16519406 0.0419306 0.144757 -0.20296866 0.06968615 0.065010294 0.026471637
0.06274761 -0.05626746
00000000: 1a8c 003c a228 29be 6cbf 2b3d 2e3b 143e
00000010: 04d7 4fbe 9db7 8e3d 1e24 853d 0cdb d83c
00000020: d281 803d b578 66bd
